…
A value is trying to be set on a copy of a slice from a DataFrame
See the caveats in the documentation: https://pandas.pydata.org/pandas-docs/stable/user_guide/indexing.html#returning-a-view-versus-a-copy
  seg[col][i] = output
Model: "model"
__________________________________________________________________________________________________
 Layer (type)                   Output Shape         Param #     Connected to
==================================================================================================
 input_1 (InputLayer)           [(None, 7, 17)]      0           []
 dense (Dense)                  (None, 7, 128)       2304        ['input_1[0][0]']
 lstm (LSTM)                    (None, 7, 128)       131584      ['dense[0][0]']
 lstm_1 (LSTM)                  (None, 7, 128)       131584      ['lstm[0][0]']
 tf.__operators__.add (TFOpLamb  (None, 7, 128)      0           ['lstm_1[0][0]',
 da)                                                              'lstm[0][0]']
 dense_1 (Dense)                (None, 7, 128)       16512       ['tf.__operators__.add[0][0]']
 lstm_2 (LSTM)                  (None, 7, 128)       131584      ['dense_1[0][0]']
 tf.__operators__.add_1 (TFOpLa  (None, 7, 128)      0           ['lstm_2[0][0]',
 mbda)                                                            'dense_1[0][0]']
 lstm_3 (LSTM)                  (None, 7, 128)       131584      ['tf.__operators__.add_1[0][0]']
 tf.__operators__.add_2 (TFOpLa  (None, 7, 128)      0           ['lstm_3[0][0]',
 mbda)                                                            'tf.__operators__.add_1[0][0]']
 lstm_4 (LSTM)                  (None, 7, 128)       131584      ['tf.__operators__.add_2[0][0]']
 tf.__operators__.add_3 (TFOpLa  (None, 7, 128)      0           ['lstm_4[0][0]',
 mbda)                                                            'tf.__operators__.add_2[0][0]']
 dense_2 (Dense)                (None, 7, 128)       16512       ['tf.__operators__.add_3[0][0]']
 lstm_5 (LSTM)                  (None, 7, 128)       131584      ['dense_2[0][0]']
 tf.__operators__.add_4 (TFOpLa  (None, 7, 128)      0           ['lstm_5[0][0]',
 mbda)                                                            'dense_2[0][0]']
 lstm_6 (LSTM)                  (None, 7, 128)       131584      ['tf.__operators__.add_4[0][0]']
 tf.__operators__.add_5 (TFOpLa  (None, 7, 128)      0           ['lstm_6[0][0]',
 mbda)                                                            'tf.__operators__.add_4[0][0]']
 lstm_7 (LSTM)                  (None, 128)          131584      ['tf.__operators__.add_5[0][0]']
 dense_3 (Dense)                (None, 3)            387         ['lstm_7[0][0]']
==================================================================================================
Total params: 1,088,387
Trainable params: 1,088,387
Non-trainable params: 0
__________________________________________________________________________________________________
[34m[1mwandb[39m[22m: [33mWARNING[39m The data_type argument of wandb.keras.WandbCallback is deprecated and will be removed in a future release. Please use input_type instead.
…
